…
Preprocessed datasets loaded: train (3781) and val (541) sets.

robot_ids batch shape: torch.Size([64]), sample ID: 201854
grid_data batch shape: torch.Size([64, 11, 11, 11]), grid data sample shape: torch.Size([11, 11, 11])

Model summary:
===================================================================================================================
Layer (type:depth-idx)                   Input Shape               Output Shape              Param #
===================================================================================================================
VAE                                      [1, 11, 11, 11]           [1, 11, 11, 11]           --
├─Encoder: 1-1                           [1, 11, 11, 11]           [1, 2]                    --
│    └─Conv3d: 2-1                       [1, 1, 11, 11, 11]        [1, 64, 11, 11, 11]       1,792
│    └─BatchNorm3d: 2-2                  [1, 64, 11, 11, 11]       [1, 64, 11, 11, 11]       128
│    └─LeakyReLU: 2-3                    [1, 64, 11, 11, 11]       [1, 64, 11, 11, 11]       --
│    └─Conv3d: 2-4                       [1, 64, 11, 11, 11]       [1, 128, 6, 6, 6]         221,312
│    └─BatchNorm3d: 2-5                  [1, 128, 6, 6, 6]         [1, 128, 6, 6, 6]         256
│    └─LeakyReLU: 2-6                    [1, 128, 6, 6, 6]         [1, 128, 6, 6, 6]         --
│    └─Conv3d: 2-7                       [1, 128, 6, 6, 6]         [1, 256, 6, 6, 6]         884,992
│    └─BatchNorm3d: 2-8                  [1, 256, 6, 6, 6]         [1, 256, 6, 6, 6]         512
│    └─LeakyReLU: 2-9                    [1, 256, 6, 6, 6]         [1, 256, 6, 6, 6]         --
│    └─Conv3d: 2-10                      [1, 256, 6, 6, 6]         [1, 256, 6, 6, 6]         1,769,728
│    └─BatchNorm3d: 2-11                 [1, 256, 6, 6, 6]         [1, 256, 6, 6, 6]         512
│    └─LeakyReLU: 2-12                   [1, 256, 6, 6, 6]         [1, 256, 6, 6, 6]         --
│    └─Flatten: 2-13                     [1, 256, 6, 6, 6]         [1, 55296]                --
│    └─Linear: 2-14                      [1, 55296]                [1, 2]                    110,594
│    └─Linear: 2-15                      [1, 55296]                [1, 2]                    110,594
├─Sample: 1-2                            [1, 2]                    [1, 2]                    --
├─Decoder: 1-3                           [1, 2]                    [1, 11, 11, 11]           --
│    └─Linear: 2-16                      [1, 2]                    [1, 55296]                165,888
│    └─BatchNorm1d: 2-17                 [1, 55296]                [1, 55296]                110,592
│    └─LeakyReLU: 2-18                   [1, 55296]                [1, 55296]                --
│    └─Conv3d: 2-19                      [1, 256, 6, 6, 6]         [1, 256, 6, 6, 6]         1,769,728
│    └─BatchNorm3d: 2-20                 [1, 256, 6, 6, 6]         [1, 256, 6, 6, 6]         512
│    └─LeakyReLU: 2-21                   [1, 256, 6, 6, 6]         [1, 256, 6, 6, 6]         --
│    └─Conv3d: 2-22                      [1, 256, 6, 6, 6]         [1, 128, 6, 6, 6]         884,864
│    └─BatchNorm3d: 2-23                 [1, 128, 6, 6, 6]         [1, 128, 6, 6, 6]         256
│    └─LeakyReLU: 2-24                   [1, 128, 6, 6, 6]         [1, 128, 6, 6, 6]         --
│    └─ConvTranspose3d: 2-25             [1, 128, 6, 6, 6]         [1, 64, 11, 11, 11]       221,248
│    └─BatchNorm3d: 2-26                 [1, 64, 11, 11, 11]       [1, 64, 11, 11, 11]       128
│    └─LeakyReLU: 2-27                   [1, 64, 11, 11, 11]       [1, 64, 11, 11, 11]       --
│    └─Conv3d: 2-28                      [1, 64, 11, 11, 11]       [1, 1, 11, 11, 11]        1,729
===================================================================================================================
Total params: 6,255,365
Trainable params: 6,255,365
Non-trainable params: 0
Total mult-adds (G): 1.49
===================================================================================================================
Input size (MB): 0.01
Forward/backward pass size (MB): 7.16
Params size (MB): 25.02
…
