…
Preprocessed datasets loaded: train (3781) and val (541) sets.

robot_ids batch shape: torch.Size([64]), sample ID: 201854
grid_data batch shape: torch.Size([64, 8, 8]), grid data sample shape: torch.Size([8, 8])

Model summary:
===================================================================================================================
Layer (type:depth-idx)                   Input Shape               Output Shape              Param #
===================================================================================================================
VAE                                      [1, 8, 8]                 [1, 8, 8]                 --
├─Encoder: 1-1                           [1, 8, 8]                 [1, 2]                    --
│    └─TNet: 2-1                         [1, 8, 3]                 [1, 3, 3]                 --
│    │    └─Sequential: 3-1              [1, 3]                    [1, 9]                    9,737
│    └─Sequential: 2-2                   [1, 3, 8]                 [1, 1024, 8]              --
│    │    └─Conv1d: 3-2                  [1, 3, 8]                 [1, 64, 8]                256
│    │    └─BatchNorm1d: 3-3             [1, 64, 8]                [1, 64, 8]                128
│    │    └─LeakyReLU: 3-4               [1, 64, 8]                [1, 64, 8]                --
│    │    └─Conv1d: 3-5                  [1, 64, 8]                [1, 128, 8]               8,320
│    │    └─BatchNorm1d: 3-6             [1, 128, 8]               [1, 128, 8]               256
│    │    └─LeakyReLU: 3-7               [1, 128, 8]               [1, 128, 8]               --
│    │    └─Conv1d: 3-8                  [1, 128, 8]               [1, 1024, 8]              132,096
│    │    └─BatchNorm1d: 3-9             [1, 1024, 8]              [1, 1024, 8]              2,048
│    │    └─LeakyReLU: 3-10              [1, 1024, 8]              [1, 1024, 8]              --
│    └─Sequential: 2-3                   [1, 5, 8]                 [1, 128, 8]               --
│    │    └─Conv1d: 3-11                 [1, 5, 8]                 [1, 64, 8]                384
│    │    └─BatchNorm1d: 3-12            [1, 64, 8]                [1, 64, 8]                128
│    │    └─LeakyReLU: 3-13              [1, 64, 8]                [1, 64, 8]                --
│    │    └─Conv1d: 3-14                 [1, 64, 8]                [1, 128, 8]               8,320
│    │    └─BatchNorm1d: 3-15            [1, 128, 8]               [1, 128, 8]               256
│    │    └─LeakyReLU: 3-16              [1, 128, 8]               [1, 128, 8]               --
│    └─AdaptiveAvgPool1d: 2-4            [1, 1024, 8]              [1, 1024, 1]              --
│    └─AdaptiveAvgPool1d: 2-5            [1, 128, 8]               [1, 128, 1]               --
│    └─Sequential: 2-6                   [1, 2176]                 [1, 256]                  --
│    │    └─Linear: 3-17                 [1, 2176]                 [1, 1024]                 2,229,248
│    │    └─LeakyReLU: 3-18              [1, 1024]                 [1, 1024]                 --
│    │    └─Linear: 3-19                 [1, 1024]                 [1, 512]                  524,800
│    │    └─LeakyReLU: 3-20              [1, 512]                  [1, 512]                  --
│    │    └─Linear: 3-21                 [1, 512]                  [1, 256]                  131,328
│    │    └─LeakyReLU: 3-22              [1, 256]                  [1, 256]                  --
│    └─Linear: 2-7                       [1, 256]                  [1, 2]                    514
│    └─Linear: 2-8                       [1, 256]                  [1, 2]                    514
├─Sample: 1-2                            [1, 2]                    [1, 2]                    --
├─Decoder: 1-3                           [1, 2]                    [1, 8, 8]                 --
│    └─Sequential: 2-9                   [1, 2]                    [1, 256]                  --
│    │    └─Linear: 3-23                 [1, 2]                    [1, 256]                  768
│    │    └─LeakyReLU: 3-24              [1, 256]                  [1, 256]                  --
│    └─Sequential: 2-10                  [1, 256, 1]               [1, 3, 8]                 --
│    │    └─ConvTranspose1d: 3-25        [1, 256, 1]               [1, 512, 2]               262,656
│    │    └─BatchNorm1d: 3-26            [1, 512, 2]               [1, 512, 2]               1,024
│    │    └─LeakyReLU: 3-27              [1, 512, 2]               [1, 512, 2]               --
│    │    └─ConvTranspose1d: 3-28        [1, 512, 2]               [1, 1024, 4]              1,049,600
│    │    └─BatchNorm1d: 3-29            [1, 1024, 4]              [1, 1024, 4]              2,048
│    │    └─LeakyReLU: 3-30              [1, 1024, 4]              [1, 1024, 4]              --
│    │    └─ConvTranspose1d: 3-31        [1, 1024, 4]              [1, 256, 8]               524,544
│    │    └─BatchNorm1d: 3-32            [1, 256, 8]               [1, 256, 8]               512
│    │    └─LeakyReLU: 3-33              [1, 256, 8]               [1, 256, 8]               --
│    │    └─ConvTranspose1d: 3-34        [1, 256, 8]               [1, 3, 8]                 771
│    └─Sequential: 2-11                  [1, 256, 1]               [1, 5, 8]                 --
│    │    └─ConvTranspose1d: 3-35        [1, 256, 1]               [1, 512, 2]               262,656
│    │    └─BatchNorm1d: 3-36            [1, 512, 2]               [1, 512, 2]               1,024
│    │    └─LeakyReLU: 3-37              [1, 512, 2]               [1, 512, 2]               --
│    │    └─ConvTranspose1d: 3-38        [1, 512, 2]               [1, 128, 4]               131,200
│    │    └─BatchNorm1d: 3-39            [1, 128, 4]               [1, 128, 4]               256
│    │    └─LeakyReLU: 3-40              [1, 128, 4]               [1, 128, 4]               --
│    │    └─ConvTranspose1d: 3-41        [1, 128, 4]               [1, 64, 8]                16,448
│    │    └─BatchNorm1d: 3-42            [1, 64, 8]                [1, 64, 8]                128
│    │    └─LeakyReLU: 3-43              [1, 64, 8]                [1, 64, 8]                --
│    │    └─ConvTranspose1d: 3-44        [1, 64, 8]                [1, 5, 8]                 325
│    └─Sequential: 2-12                  [1, 8, 3]                 [1, 8, 3]                 --
│    │    └─Linear: 3-45                 [1, 8, 3]                 [1, 8, 3]                 12
│    │    └─LeakyReLU: 3-46              [1, 8, 3]                 [1, 8, 3]                 --
│    └─Sequential: 2-13                  [1, 8, 5]                 [1, 8, 5]                 --
│    │    └─Linear: 3-47                 [1, 8, 5]                 [1, 8, 5]                 30
│    │    └─LeakyReLU: 3-48              [1, 8, 5]                 [1, 8, 5]                 --
│    └─Sequential: 2-14                  [1, 8, 8]                 [1, 8, 8]                 --
│    │    └─Linear: 3-49                 [1, 8, 8]                 [1, 8, 8]                 72
│    │    └─LeakyReLU: 3-50              [1, 8, 8]                 [1, 8, 8]                 --
===================================================================================================================
Total params: 5,302,407
Trainable params: 5,302,407
Non-trainable params: 0
Total mult-adds (M): 14.21
===================================================================================================================
Input size (MB): 0.00
Forward/backward pass size (MB): 0.35
Params size (MB): 21.21
…
