…
	- Beta: 0.1
	- Accuracy: 0.2549
	- Weighted F1: 0.4043
	- Learning Rate: 0.001
	- Average Training Time: 00:24:60
--------------------------------------------------
Validation Metrics (Last Epoch):
	- Reconstruction Loss, Weighted by Class Imbalance, Averaged Across Batches: 0.0858
	- KL Divergence, Averaged Across Batches: 0.0000
	- Beta: 0.1
	- Accuracy: 0.2551
	- Weighted F1: 0.4046
	- Average Validation Time: 00:03:25
--------------------------------------------------
Model Architecture Used:
Latent Dim: 4

- '':
VAE(
  (encoder): Encoder(
    (flatten): Flatten(start_dim=1, end_dim=-1)
    (fc1): Linear(in_features=1331, out_features=512, bias=True)
    (fc2): Linear(in_features=512, out_features=256, bias=True)
    (z_mean): Linear(in_features=256, out_features=4, bias=True)
    (z_log_var): Linear(in_features=256, out_features=4, bias=True)
  )
  (sampling): Sample()
  (decoder): Decoder(
    (fc1): Linear(in_features=4, out_features=256, bias=True)
    (fc2): Linear(in_features=256, out_features=512, bias=True)
    (fc3): Linear(in_features=512, out_features=1331, bias=True)
  )
)

- 'encoder':
Encoder(
  (flatten): Flatten(start_dim=1, end_dim=-1)
  (fc1): Linear(in_features=1331, out_features=512, bias=True)
  (fc2): Linear(in_features=512, out_features=256, bias=True)
  (z_mean): Linear(in_features=256, out_features=4, bias=True)
  (z_log_var): Linear(in_features=256, out_features=4, bias=True)
)

- 'encoder.flatten':
Flatten(start_dim=1, end_dim=-1)

- 'encoder.fc1':
Linear(in_features=1331, out_features=512, bias=True)

- 'encoder.fc2':
Linear(in_features=512, out_features=256, bias=True)

- 'encoder.z_mean':
Linear(in_features=256, out_features=4, bias=True)

- 'encoder.z_log_var':
Linear(in_features=256, out_features=4, bias=True)

- 'sampling':
Sample()

- 'decoder':
Decoder(
  (fc1): Linear(in_features=4, out_features=256, bias=True)
  (fc2): Linear(in_features=256, out_features=512, bias=True)
  (fc3): Linear(in_features=512, out_features=1331, bias=True)
)

- 'decoder.fc1':
Linear(in_features=4, out_features=256, bias=True)

- 'decoder.fc2':
Linear(in_features=256, out_features=512, bias=True)

- 'decoder.fc3':
Linear(in_features=512, out_features=1331, bias=True)
--------------------------------------------------
Search complete!
>>>>>>>>>>>>>>>>>>>>>>>>>>>>>>>>>>>>>>>>>>>>>>>>>>

Alternative history filename updated: 'best_performing_base_bs64_ld4_bce_adam_lr0.001_wd0_be0.1_epoch_28'
…
