…
	- Beta: 0.1
	- Accuracy: 0.9907
	- Weighted F1: 0.9909
	- Learning Rate: 0.001
	- Average Training Time: 00:04:24
--------------------------------------------------
Validation Metrics (Last Epoch):
	- Reconstruction Loss, Weighted by Class Imbalance, Averaged Across Batches: 0.0375
	- KL Divergence, Averaged Across Batches: 0.0002
	- Beta: 0.1
	- Accuracy: 0.9908
	- Weighted F1: 0.9910
	- Average Validation Time: 00:01:38
--------------------------------------------------
Model Architecture Used:
Latent Dim: 2

- '':
VAE(
  (encoder): Encoder(
    (flatten): Flatten(start_dim=1, end_dim=-1)
    (fc1): Linear(in_features=1331, out_features=512, bias=True)
    (fc2): Linear(in_features=512, out_features=256, bias=True)
    (z_mean): Linear(in_features=256, out_features=2, bias=True)
    (z_log_var): Linear(in_features=256, out_features=2, bias=True)
  )
  (sampling): Sample()
  (decoder): Decoder(
    (fc1): Linear(in_features=2, out_features=256, bias=True)
    (fc2): Linear(in_features=256, out_features=512, bias=True)
    (fc3): Linear(in_features=512, out_features=1331, bias=True)
  )
)

- 'encoder':
Encoder(
  (flatten): Flatten(start_dim=1, end_dim=-1)
  (fc1): Linear(in_features=1331, out_features=512, bias=True)
  (fc2): Linear(in_features=512, out_features=256, bias=True)
  (z_mean): Linear(in_features=256, out_features=2, bias=True)
  (z_log_var): Linear(in_features=256, out_features=2, bias=True)
)

- 'encoder.flatten':
Flatten(start_dim=1, end_dim=-1)

- 'encoder.fc1':
Linear(in_features=1331, out_features=512, bias=True)

- 'encoder.fc2':
Linear(in_features=512, out_features=256, bias=True)

- 'encoder.z_mean':
Linear(in_features=256, out_features=2, bias=True)

- 'encoder.z_log_var':
Linear(in_features=256, out_features=2, bias=True)

- 'sampling':
Sample()

- 'decoder':
Decoder(
  (fc1): Linear(in_features=2, out_features=256, bias=True)
  (fc2): Linear(in_features=256, out_features=512, bias=True)
  (fc3): Linear(in_features=512, out_features=1331, bias=True)
)

- 'decoder.fc1':
Linear(in_features=2, out_features=256, bias=True)

- 'decoder.fc2':
Linear(in_features=256, out_features=512, bias=True)

- 'decoder.fc3':
Linear(in_features=512, out_features=1331, bias=True)
--------------------------------------------------
Search complete!
>>>>>>>>>>>>>>>>>>>>>>>>>>>>>>>>>>>>>>>>>>>>>>>>>>

Alternative history filename updated: 'best_performing_base_log_weights_toy_bs64_ld2_mse_adam_lr0.001_wd0_be0.1_epoch_1'
…
	- Beta: 0.1
	- Accuracy: 0.9907
	- Weighted F1: 0.9909
	- Learning Rate: 0.001
	- Average Training Time: 00:04:24
--------------------------------------------------
Validation Metrics (Last Epoch):
	- Reconstruction Loss, Weighted by Class Imbalance, Averaged Across Batches: 0.0374
	- KL Divergence, Averaged Across Batches: 0.0004
	- Beta: 0.1
	- Accuracy: 0.9913
	- Weighted F1: 0.9913
	- Average Validation Time: 00:01:38
--------------------------------------------------
Model Architecture Used:
Latent Dim: 4

- '':
VAE(
  (encoder): Encoder(
    (flatten): Flatten(start_dim=1, end_dim=-1)
    (fc1): Linear(in_features=1331, out_features=512, bias=True)
    (fc2): Linear(in_features=512, out_features=256, bias=True)
    (z_mean): Linear(in_features=256, out_features=4, bias=True)
    (z_log_var): Linear(in_features=256, out_features=4, bias=True)
  )
  (sampling): Sample()
  (decoder): Decoder(
    (fc1): Linear(in_features=4, out_features=256, bias=True)
    (fc2): Linear(in_features=256, out_features=512, bias=True)
    (fc3): Linear(in_features=512, out_features=1331, bias=True)
  )
)

- 'encoder':
Encoder(
  (flatten): Flatten(start_dim=1, end_dim=-1)
  (fc1): Linear(in_features=1331, out_features=512, bias=True)
  (fc2): Linear(in_features=512, out_features=256, bias=True)
  (z_mean): Linear(in_features=256, out_features=4, bias=True)
  (z_log_var): Linear(in_features=256, out_features=4, bias=True)
)

- 'encoder.flatten':
Flatten(start_dim=1, end_dim=-1)

- 'encoder.fc1':
Linear(in_features=1331, out_features=512, bias=True)

- 'encoder.fc2':
Linear(in_features=512, out_features=256, bias=True)

- 'encoder.z_mean':
Linear(in_features=256, out_features=4, bias=True)

- 'encoder.z_log_var':
Linear(in_features=256, out_features=4, bias=True)

- 'sampling':
Sample()

- 'decoder':
Decoder(
  (fc1): Linear(in_features=4, out_features=256, bias=True)
  (fc2): Linear(in_features=256, out_features=512, bias=True)
  (fc3): Linear(in_features=512, out_features=1331, bias=True)
)

- 'decoder.fc1':
Linear(in_features=4, out_features=256, bias=True)

- 'decoder.fc2':
Linear(in_features=256, out_features=512, bias=True)

- 'decoder.fc3':
Linear(in_features=512, out_features=1331, bias=True)
--------------------------------------------------
Search complete!
>>>>>>>>>>>>>>>>>>>>>>>>>>>>>>>>>>>>>>>>>>>>>>>>>>

Alternative history filename updated: 'best_loss_base_log_weights_toy_bs64_ld4_mse_adam_lr0.001_wd0_be0.1_epoch_30'
…
