…
Preprocessed datasets loaded: train (3781) and val (541) sets.

robot_ids batch shape: torch.Size([64]), sample ID: 201854
grid_data batch shape: torch.Size([64, 8, 8]), grid data sample shape: torch.Size([8, 8])

Model summary:
===================================================================================================================
Layer (type:depth-idx)                   Input Shape               Output Shape              Param #
===================================================================================================================
VAE                                      [1, 8, 8]                 [1, 8, 8]                 --
├─Encoder: 1-1                           [1, 8, 8]                 [1, 2]                    --
│    └─TNet: 2-1                         [1, 8, 8]                 [1, 8, 8]                 --
│    │    └─Sequential: 3-1              [1, 8]                    [1, 64]                   17,152
│    └─Sequential: 2-2                   [1, 8, 8]                 [1, 8, 1024]              --
│    │    └─Linear: 3-2                  [1, 8, 8]                 [1, 8, 64]                576
│    │    └─ReLU: 3-3                    [1, 8, 64]                [1, 8, 64]                --
│    │    └─Linear: 3-4                  [1, 8, 64]                [1, 8, 128]               8,320
│    │    └─ReLU: 3-5                    [1, 8, 128]               [1, 8, 128]               --
│    │    └─Linear: 3-6                  [1, 8, 128]               [1, 8, 1024]              132,096
│    │    └─ReLU: 3-7                    [1, 8, 1024]              [1, 8, 1024]              --
│    └─Sequential: 2-3                   [1, 8, 2048]              [1, 8, 256]               --
│    │    └─Linear: 3-8                  [1, 8, 2048]              [1, 8, 512]               1,049,088
│    │    └─ReLU: 3-9                    [1, 8, 512]               [1, 8, 512]               --
│    │    └─Linear: 3-10                 [1, 8, 512]               [1, 8, 256]               131,328
│    │    └─ReLU: 3-11                   [1, 8, 256]               [1, 8, 256]               --
│    └─Linear: 2-4                       [1, 256]                  [1, 2]                    514
│    └─Linear: 2-5                       [1, 256]                  [1, 2]                    514
├─Sample: 1-2                            [1, 2]                    [1, 2]                    --
├─Decoder: 1-3                           [1, 2]                    [1, 8, 8]                 --
│    └─Linear: 2-6                       [1, 2]                    [1, 256]                  768
│    └─Sequential: 2-7                   [1, 8, 256]               [1, 8, 1024]              --
│    │    └─ReLU: 3-12                   [1, 8, 256]               [1, 8, 256]               --
│    │    └─Linear: 3-13                 [1, 8, 256]               [1, 8, 512]               131,584
│    │    └─ReLU: 3-14                   [1, 8, 512]               [1, 8, 512]               --
│    │    └─Linear: 3-15                 [1, 8, 512]               [1, 8, 1024]              525,312
│    │    └─ReLU: 3-16                   [1, 8, 1024]              [1, 8, 1024]              --
│    └─Sequential: 2-8                   [1, 8, 1026]              [1, 8, 8]                 --
│    │    └─Linear: 3-17                 [1, 8, 1026]              [1, 8, 1024]              1,051,648
│    │    └─ReLU: 3-18                   [1, 8, 1024]              [1, 8, 1024]              --
│    │    └─Linear: 3-19                 [1, 8, 1024]              [1, 8, 128]               131,200
│    │    └─ReLU: 3-20                   [1, 8, 128]               [1, 8, 128]               --
│    │    └─Linear: 3-21                 [1, 8, 128]               [1, 8, 64]                8,256
│    │    └─ReLU: 3-22                   [1, 8, 64]                [1, 8, 64]                --
│    │    └─Linear: 3-23                 [1, 8, 64]                [1, 8, 8]                 520
===================================================================================================================
Total params: 3,188,876
Trainable params: 3,188,876
Non-trainable params: 0
Total mult-adds (M): 3.19
===================================================================================================================
Input size (MB): 0.00
Forward/backward pass size (MB): 0.31
Params size (MB): 12.76
…
