…
--------------------------------------------------
Validation Metrics (Last Epoch):
	- Coordinate Euclidean Distance: 0.7978
	- Reconstruction Loss, Averaged Across Batches: 287.1796
	- KL Divergence, Averaged Across Batches: 92.2650
	- Descriptor Loss, Averaged Across Batches: 1.1836583481894598
	- Coordinate Loss, Averaged Across Batches: 0.10082720965147018
	- Beta: 0.2
	- Accuracy: 0.3677
	- Weighted F1: 0.3765
	- Average Validation Time: 00:00:01
--------------------------------------------------
Model Architecture Used:
Latent Dim: 16

- '':
VAE(
  (encoder): Encoder(
    (tnet): TNet(
      (fc): Sequential(
        (0): Linear(in_features=3, out_features=64, bias=True)
        (1): LeakyReLU(negative_slope=0.01)
        (2): Linear(in_features=64, out_features=128, bias=True)
        (3): LeakyReLU(negative_slope=0.01)
        (4): Linear(in_features=128, out_features=9, bias=True)
      )
    )
    (spatial_mlp): Sequential(
      (0): Conv1d(3, 64, kernel_size=(1,), stride=(1,))
      (1): BatchNorm1d(64, eps=1e-05, momentum=0.1, affine=True, track_running_stats=True)
      (2): LeakyReLU(negative_slope=0.01)
      (3): Conv1d(64, 128, kernel_size=(1,), stride=(1,))
      (4): BatchNorm1d(128, eps=1e-05, momentum=0.1, affine=True, track_running_stats=True)
      (5): LeakyReLU(negative_slope=0.01)
      (6): Conv1d(128, 1024, kernel_size=(1,), stride=(1,))
      (7): BatchNorm1d(1024, eps=1e-05, momentum=0.1, affine=True, track_running_stats=True)
      (8): LeakyReLU(negative_slope=0.01)
    )
    (descriptor_mlp): Sequential(
      (0): Conv1d(5, 64, kernel_size=(1,), stride=(1,))
      (1): BatchNorm1d(64, eps=1e-05, momentum=0.1, affine=True, track_running_stats=True)
      (2): LeakyReLU(negative_slope=0.01)
      (3): Conv1d(64, 128, kernel_size=(1,), stride=(1,))
      (4): BatchNorm1d(128, eps=1e-05, momentum=0.1, affine=True, track_running_stats=True)
      (5): LeakyReLU(negative_slope=0.01)
      (6): Conv1d(128, 1024, kernel_size=(1,), stride=(1,))
      (7): BatchNorm1d(1024, eps=1e-05, momentum=0.1, affine=True, track_running_stats=True)
      (8): LeakyReLU(negative_slope=0.01)
    )
    (global_pool): AdaptiveAvgPool1d(output_size=1)
    (combined_activation): LeakyReLU(negative_slope=0.01)
    (fc): Sequential(
      (0): Linear(in_features=1024, out_features=512, bias=True)
      (1): LeakyReLU(negative_slope=0.01)
      (2): Linear(in_features=512, out_features=256, bias=True)
      (3): LeakyReLU(negative_slope=0.01)
      (4): Linear(in_features=256, out_features=128, bias=True)
      (5): LeakyReLU(negative_slope=0.01)
    )
    (z_mean_fc): Linear(in_features=128, out_features=16, bias=True)
    (z_log_var_fc): Linear(in_features=128, out_features=16, bias=True)
  )
  (sampling): Sample()
  (decoder): Decoder(
    (fc): Sequential(
      (0): Linear(in_features=16, out_features=128, bias=True)
      (1): LeakyReLU(negative_slope=0.01)
      (2): Linear(in_features=128, out_features=256, bias=True)
      (3): LeakyReLU(negative_slope=0.01)
    )
    (coord_deconv): Sequential(
      (0): ConvTranspose1d(256, 512, kernel_size=(2,), stride=(1,))
      (1): BatchNorm1d(512, eps=1e-05, momentum=0.1, affine=True, track_running_stats=True)
      (2): LeakyReLU(negative_slope=0.01)
      (3): ConvTranspose1d(512, 1024, kernel_size=(2,), stride=(2,))
      (4): BatchNorm1d(1024, eps=1e-05, momentum=0.1, affine=True, track_running_stats=True)
      (5): LeakyReLU(negative_slope=0.01)
      (6): ConvTranspose1d(1024, 256, kernel_size=(2,), stride=(2,))
      (7): BatchNorm1d(256, eps=1e-05, momentum=0.1, affine=True, track_running_stats=True)
      (8): LeakyReLU(negative_slope=0.01)
      (9): ConvTranspose1d(256, 3, kernel_size=(1,), stride=(1,))
    )
    (coord_fc): Sequential(
      (0): Linear(in_features=3, out_features=3, bias=True)
      (1): LeakyReLU(negative_slope=0.01)
    )
    (desc_deconv): Sequential(
      (0): ConvTranspose1d(256, 512, kernel_size=(2,), stride=(1,))
      (1): BatchNorm1d(512, eps=1e-05, momentum=0.1, affine=True, track_running_stats=True)
      (2): LeakyReLU(negative_slope=0.01)
      (3): ConvTranspose1d(512, 128, kernel_size=(2,), stride=(2,))
      (4): BatchNorm1d(128, eps=1e-05, momentum=0.1, affine=True, track_running_stats=True)
      (5): LeakyReLU(negative_slope=0.01)
      (6): ConvTranspose1d(128, 64, kernel_size=(2,), stride=(2,))
      (7): BatchNorm1d(64, eps=1e-05, momentum=0.1, affine=True, track_running_stats=True)
      (8): LeakyReLU(negative_slope=0.01)
      (9): ConvTranspose1d(64, 5, kernel_size=(1,), stride=(1,))
    )
    (desc_fc): Sequential(
      (0): Linear(in_features=5, out_features=5, bias=True)
      (1): LeakyReLU(negative_slope=0.01)
    )
    (combined_fc): Sequential(
      (0): Linear(in_features=8, out_features=8, bias=True)
      (1): LeakyReLU(negative_slope=0.01)
    )
  )
)

- 'encoder':
Encoder(
  (tnet): TNet(
    (fc): Sequential(
      (0): Linear(in_features=3, out_features=64, bias=True)
      (1): LeakyReLU(negative_slope=0.01)
      (2): Linear(in_features=64, out_features=128, bias=True)
      (3): LeakyReLU(negative_slope=0.01)
      (4): Linear(in_features=128, out_features=9, bias=True)
    )
  )
  (spatial_mlp): Sequential(
    (0): Conv1d(3, 64, kernel_size=(1,), stride=(1,))
    (1): BatchNorm1d(64, eps=1e-05, momentum=0.1, affine=True, track_running_stats=True)
    (2): LeakyReLU(negative_slope=0.01)
    (3): Conv1d(64, 128, kernel_size=(1,), stride=(1,))
    (4): BatchNorm1d(128, eps=1e-05, momentum=0.1, affine=True, track_running_stats=True)
    (5): LeakyReLU(negative_slope=0.01)
    (6): Conv1d(128, 1024, kernel_size=(1,), stride=(1,))
    (7): BatchNorm1d(1024, eps=1e-05, momentum=0.1, affine=True, track_running_stats=True)
    (8): LeakyReLU(negative_slope=0.01)
  )
  (descriptor_mlp): Sequential(
    (0): Conv1d(5, 64, kernel_size=(1,), stride=(1,))
    (1): BatchNorm1d(64, eps=1e-05, momentum=0.1, affine=True, track_running_stats=True)
    (2): LeakyReLU(negative_slope=0.01)
    (3): Conv1d(64, 128, kernel_size=(1,), stride=(1,))
    (4): BatchNorm1d(128, eps=1e-05, momentum=0.1, affine=True, track_running_stats=True)
    (5): LeakyReLU(negative_slope=0.01)
    (6): Conv1d(128, 1024, kernel_size=(1,), stride=(1,))
    (7): BatchNorm1d(1024, eps=1e-05, momentum=0.1, affine=True, track_running_stats=True)
    (8): LeakyReLU(negative_slope=0.01)
  )
  (global_pool): AdaptiveAvgPool1d(output_size=1)
  (combined_activation): LeakyReLU(negative_slope=0.01)
  (fc): Sequential(
    (0): Linear(in_features=1024, out_features=512, bias=True)
    (1): LeakyReLU(negative_slope=0.01)
    (2): Linear(in_features=512, out_features=256, bias=True)
    (3): LeakyReLU(negative_slope=0.01)
    (4): Linear(in_features=256, out_features=128, bias=True)
    (5): LeakyReLU(negative_slope=0.01)
  )
  (z_mean_fc): Linear(in_features=128, out_features=16, bias=True)
  (z_log_var_fc): Linear(in_features=128, out_features=16, bias=True)
)

- 'encoder.tnet':
TNet(
  (fc): Sequential(
    (0): Linear(in_features=3, out_features=64, bias=True)
    (1): LeakyReLU(negative_slope=0.01)
    (2): Linear(in_features=64, out_features=128, bias=True)
    (3): LeakyReLU(negative_slope=0.01)
    (4): Linear(in_features=128, out_features=9, bias=True)
  )
)

- 'encoder.tnet.fc':
Sequential(
  (0): Linear(in_features=3, out_features=64, bias=True)
  (1): LeakyReLU(negative_slope=0.01)
  (2): Linear(in_features=64, out_features=128, bias=True)
  (3): LeakyReLU(negative_slope=0.01)
  (4): Linear(in_features=128, out_features=9, bias=True)
)

- 'encoder.tnet.fc.0':
Linear(in_features=3, out_features=64, bias=True)

- 'encoder.tnet.fc.1':
LeakyReLU(negative_slope=0.01)

- 'encoder.tnet.fc.2':
Linear(in_features=64, out_features=128, bias=True)

- 'encoder.tnet.fc.3':
LeakyReLU(negative_slope=0.01)

- 'encoder.tnet.fc.4':
Linear(in_features=128, out_features=9, bias=True)

- 'encoder.spatial_mlp':
Sequential(
  (0): Conv1d(3, 64, kernel_size=(1,), stride=(1,))
  (1): BatchNorm1d(64, eps=1e-05, momentum=0.1, affine=True, track_running_stats=True)
  (2): LeakyReLU(negative_slope=0.01)
  (3): Conv1d(64, 128, kernel_size=(1,), stride=(1,))
  (4): BatchNorm1d(128, eps=1e-05, momentum=0.1, affine=True, track_running_stats=True)
  (5): LeakyReLU(negative_slope=0.01)
  (6): Conv1d(128, 1024, kernel_size=(1,), stride=(1,))
  (7): BatchNorm1d(1024, eps=1e-05, momentum=0.1, affine=True, track_running_stats=True)
  (8): LeakyReLU(negative_slope=0.01)
)

- 'encoder.spatial_mlp.0':
Conv1d(3, 64, kernel_size=(1,), stride=(1,))

- 'encoder.spatial_mlp.1':
BatchNorm1d(64, eps=1e-05, momentum=0.1, affine=True, track_running_stats=True)

- 'encoder.spatial_mlp.2':
LeakyReLU(negative_slope=0.01)

- 'encoder.spatial_mlp.3':
Conv1d(64, 128, kernel_size=(1,), stride=(1,))

- 'encoder.spatial_mlp.4':
BatchNorm1d(128, eps=1e-05, momentum=0.1, affine=True, track_running_stats=True)

- 'encoder.spatial_mlp.5':
LeakyReLU(negative_slope=0.01)

- 'encoder.spatial_mlp.6':
Conv1d(128, 1024, kernel_size=(1,), stride=(1,))

- 'encoder.spatial_mlp.7':
BatchNorm1d(1024, eps=1e-05, momentum=0.1, affine=True, track_running_stats=True)

- 'encoder.spatial_mlp.8':
LeakyReLU(negative_slope=0.01)

- 'encoder.descriptor_mlp':
Sequential(
  (0): Conv1d(5, 64, kernel_size=(1,), stride=(1,))
  (1): BatchNorm1d(64, eps=1e-05, momentum=0.1, affine=True, track_running_stats=True)
  (2): LeakyReLU(negative_slope=0.01)
  (3): Conv1d(64, 128, kernel_size=(1,), stride=(1,))
  (4): BatchNorm1d(128, eps=1e-05, momentum=0.1, affine=True, track_running_stats=True)
  (5): LeakyReLU(negative_slope=0.01)
  (6): Conv1d(128, 1024, kernel_size=(1,), stride=(1,))
  (7): BatchNorm1d(1024, eps=1e-05, momentum=0.1, affine=True, track_running_stats=True)
  (8): LeakyReLU(negative_slope=0.01)
)

- 'encoder.descriptor_mlp.0':
Conv1d(5, 64, kernel_size=(1,), stride=(1,))

- 'encoder.descriptor_mlp.1':
BatchNorm1d(64, eps=1e-05, momentum=0.1, affine=True, track_running_stats=True)

- 'encoder.descriptor_mlp.2':
LeakyReLU(negative_slope=0.01)

- 'encoder.descriptor_mlp.3':
Conv1d(64, 128, kernel_size=(1,), stride=(1,))

- 'encoder.descriptor_mlp.4':
BatchNorm1d(128, eps=1e-05, momentum=0.1, affine=True, track_running_stats=True)

- 'encoder.descriptor_mlp.5':
LeakyReLU(negative_slope=0.01)

- 'encoder.descriptor_mlp.6':
Conv1d(128, 1024, kernel_size=(1,), stride=(1,))

- 'encoder.descriptor_mlp.7':
BatchNorm1d(1024, eps=1e-05, momentum=0.1, affine=True, track_running_stats=True)

- 'encoder.descriptor_mlp.8':
LeakyReLU(negative_slope=0.01)

- 'encoder.global_pool':
AdaptiveAvgPool1d(output_size=1)

- 'encoder.combined_activation':
LeakyReLU(negative_slope=0.01)

- 'encoder.fc':
Sequential(
  (0): Linear(in_features=1024, out_features=512, bias=True)
  (1): LeakyReLU(negative_slope=0.01)
  (2): Linear(in_features=512, out_features=256, bias=True)
  (3): LeakyReLU(negative_slope=0.01)
  (4): Linear(in_features=256, out_features=128, bias=True)
  (5): LeakyReLU(negative_slope=0.01)
)

- 'encoder.fc.0':
Linear(in_features=1024, out_features=512, bias=True)

- 'encoder.fc.1':
LeakyReLU(negative_slope=0.01)

- 'encoder.fc.2':
Linear(in_features=512, out_features=256, bias=True)

- 'encoder.fc.3':
LeakyReLU(negative_slope=0.01)

- 'encoder.fc.4':
Linear(in_features=256, out_features=128, bias=True)

- 'encoder.fc.5':
LeakyReLU(negative_slope=0.01)

- 'encoder.z_mean_fc':
Linear(in_features=128, out_features=16, bias=True)

- 'encoder.z_log_var_fc':
Linear(in_features=128, out_features=16, bias=True)

- 'sampling':
Sample()

- 'decoder':
Decoder(
  (fc): Sequential(
    (0): Linear(in_features=16, out_features=128, bias=True)
    (1): LeakyReLU(negative_slope=0.01)
    (2): Linear(in_features=128, out_features=256, bias=True)
    (3): LeakyReLU(negative_slope=0.01)
  )
  (coord_deconv): Sequential(
    (0): ConvTranspose1d(256, 512, kernel_size=(2,), stride=(1,))
    (1): BatchNorm1d(512, eps=1e-05, momentum=0.1, affine=True, track_running_stats=True)
    (2): LeakyReLU(negative_slope=0.01)
    (3): ConvTranspose1d(512, 1024, kernel_size=(2,), stride=(2,))
    (4): BatchNorm1d(1024, eps=1e-05, momentum=0.1, affine=True, track_running_stats=True)
    (5): LeakyReLU(negative_slope=0.01)
    (6): ConvTranspose1d(1024, 256, kernel_size=(2,), stride=(2,))
    (7): BatchNorm1d(256, eps=1e-05, momentum=0.1, affine=True, track_running_stats=True)
    (8): LeakyReLU(negative_slope=0.01)
    (9): ConvTranspose1d(256, 3, kernel_size=(1,), stride=(1,))
  )
  (coord_fc): Sequential(
    (0): Linear(in_features=3, out_features=3, bias=True)
    (1): LeakyReLU(negative_slope=0.01)
  )
  (desc_deconv): Sequential(
    (0): ConvTranspose1d(256, 512, kernel_size=(2,), stride=(1,))
    (1): BatchNorm1d(512, eps=1e-05, momentum=0.1, affine=True, track_running_stats=True)
    (2): LeakyReLU(negative_slope=0.01)
    (3): ConvTranspose1d(512, 128, kernel_size=(2,), stride=(2,))
    (4): BatchNorm1d(128, eps=1e-05, momentum=0.1, affine=True, track_running_stats=True)
    (5): LeakyReLU(negative_slope=0.01)
    (6): ConvTranspose1d(128, 64, kernel_size=(2,), stride=(2,))
    (7): BatchNorm1d(64, eps=1e-05, momentum=0.1, affine=True, track_running_stats=True)
    (8): LeakyReLU(negative_slope=0.01)
    (9): ConvTranspose1d(64, 5, kernel_size=(1,), stride=(1,))
  )
  (desc_fc): Sequential(
    (0): Linear(in_features=5, out_features=5, bias=True)
    (1): LeakyReLU(negative_slope=0.01)
  )
  (combined_fc): Sequential(
    (0): Linear(in_features=8, out_features=8, bias=True)
    (1): LeakyReLU(negative_slope=0.01)
  )
)

- 'decoder.fc':
Sequential(
  (0): Linear(in_features=16, out_features=128, bias=True)
  (1): LeakyReLU(negative_slope=0.01)
  (2): Linear(in_features=128, out_features=256, bias=True)
  (3): LeakyReLU(negative_slope=0.01)
)

- 'decoder.fc.0':
Linear(in_features=16, out_features=128, bias=True)

- 'decoder.fc.1':
LeakyReLU(negative_slope=0.01)

- 'decoder.fc.2':
Linear(in_features=128, out_features=256, bias=True)

- 'decoder.fc.3':
LeakyReLU(negative_slope=0.01)

- 'decoder.coord_deconv':
Sequential(
  (0): ConvTranspose1d(256, 512, kernel_size=(2,), stride=(1,))
  (1): BatchNorm1d(512, eps=1e-05, momentum=0.1, affine=True, track_running_stats=True)
  (2): LeakyReLU(negative_slope=0.01)
  (3): ConvTranspose1d(512, 1024, kernel_size=(2,), stride=(2,))
  (4): BatchNorm1d(1024, eps=1e-05, momentum=0.1, affine=True, track_running_stats=True)
  (5): LeakyReLU(negative_slope=0.01)
  (6): ConvTranspose1d(1024, 256, kernel_size=(2,), stride=(2,))
  (7): BatchNorm1d(256, eps=1e-05, momentum=0.1, affine=True, track_running_stats=True)
  (8): LeakyReLU(negative_slope=0.01)
  (9): ConvTranspose1d(256, 3, kernel_size=(1,), stride=(1,))
)

- 'decoder.coord_deconv.0':
ConvTranspose1d(256, 512, kernel_size=(2,), stride=(1,))

- 'decoder.coord_deconv.1':
BatchNorm1d(512, eps=1e-05, momentum=0.1, affine=True, track_running_stats=True)

- 'decoder.coord_deconv.2':
LeakyReLU(negative_slope=0.01)

- 'decoder.coord_deconv.3':
ConvTranspose1d(512, 1024, kernel_size=(2,), stride=(2,))

- 'decoder.coord_deconv.4':
BatchNorm1d(1024, eps=1e-05, momentum=0.1, affine=True, track_running_stats=True)

- 'decoder.coord_deconv.5':
LeakyReLU(negative_slope=0.01)

- 'decoder.coord_deconv.6':
ConvTranspose1d(1024, 256, kernel_size=(2,), stride=(2,))

- 'decoder.coord_deconv.7':
BatchNorm1d(256, eps=1e-05, momentum=0.1, affine=True, track_running_stats=True)

- 'decoder.coord_deconv.8':
LeakyReLU(negative_slope=0.01)

- 'decoder.coord_deconv.9':
ConvTranspose1d(256, 3, kernel_size=(1,), stride=(1,))

- 'decoder.coord_fc':
Sequential(
  (0): Linear(in_features=3, out_features=3, bias=True)
  (1): LeakyReLU(negative_slope=0.01)
)

- 'decoder.coord_fc.0':
Linear(in_features=3, out_features=3, bias=True)

- 'decoder.coord_fc.1':
LeakyReLU(negative_slope=0.01)

- 'decoder.desc_deconv':
Sequential(
  (0): ConvTranspose1d(256, 512, kernel_size=(2,), stride=(1,))
  (1): BatchNorm1d(512, eps=1e-05, momentum=0.1, affine=True, track_running_stats=True)
  (2): LeakyReLU(negative_slope=0.01)
  (3): ConvTranspose1d(512, 128, kernel_size=(2,), stride=(2,))
  (4): BatchNorm1d(128, eps=1e-05, momentum=0.1, affine=True, track_running_stats=True)
  (5): LeakyReLU(negative_slope=0.01)
  (6): ConvTranspose1d(128, 64, kernel_size=(2,), stride=(2,))
  (7): BatchNorm1d(64, eps=1e-05, momentum=0.1, affine=True, track_running_stats=True)
  (8): LeakyReLU(negative_slope=0.01)
  (9): ConvTranspose1d(64, 5, kernel_size=(1,), stride=(1,))
)

- 'decoder.desc_deconv.0':
ConvTranspose1d(256, 512, kernel_size=(2,), stride=(1,))

- 'decoder.desc_deconv.1':
BatchNorm1d(512, eps=1e-05, momentum=0.1, affine=True, track_running_stats=True)

- 'decoder.desc_deconv.2':
LeakyReLU(negative_slope=0.01)

- 'decoder.desc_deconv.3':
ConvTranspose1d(512, 128, kernel_size=(2,), stride=(2,))

- 'decoder.desc_deconv.4':
…
