…
Preprocessed datasets loaded: train (3781) and val (541) sets.

robot_ids batch shape: torch.Size([64]), sample ID: 201854
grid_data batch shape: torch.Size([64, 11, 11, 11]), grid data sample shape: torch.Size([11, 11, 11])

Model summary:
===================================================================================================================
Layer (type:depth-idx)                   Input Shape               Output Shape              Param #
===================================================================================================================
VAE                                      [1, 11, 11, 11]           [1, 11, 11, 11]           --
├─Encoder: 1-1                           [1, 11, 11, 11]           [1, 2]                    --
│    └─Conv3d: 2-1                       [1, 1, 11, 11, 11]        [1, 256, 3, 3, 3]         88,064
│    └─Conv3d: 2-2                       [1, 1, 11, 11, 11]        [1, 128, 6, 6, 6]         3,584
│    └─Conv3d: 2-3                       [1, 128, 6, 6, 6]         [1, 256, 3, 3, 3]         884,992
│    └─Flatten: 2-4                      [1, 256, 3, 3, 3]         [1, 6912]                 --
│    └─Linear: 2-5                       [1, 6912]                 [1, 2]                    13,826
│    └─Linear: 2-6                       [1, 6912]                 [1, 2]                    13,826
├─Sample: 1-2                            [1, 2]                    [1, 2]                    --
├─Decoder: 1-3                           [1, 2]                    [1, 11, 11, 11]           --
│    └─Linear: 2-7                       [1, 2]                    [1, 6912]                 20,736
│    └─ConvTranspose3d: 2-8              [1, 256, 3, 3, 3]         [1, 1, 11, 11, 11]        87,809
│    └─ConvTranspose3d: 2-9              [1, 256, 3, 3, 3]         [1, 128, 6, 6, 6]         884,864
│    └─ConvTranspose3d: 2-10             [1, 128, 6, 6, 6]         [1, 1, 11, 11, 11]        3,457
===================================================================================================================
Total params: 2,001,158
Trainable params: 2,001,158
Non-trainable params: 0
Total mult-adds (M): 339.70
===================================================================================================================
Input size (MB): 0.01
Forward/backward pass size (MB): 0.63
Params size (MB): 8.00
…
